weights.npz (npz, 1186 bytes, 3 tensors)

arr_0 f4 [8, 4]
0	0x3e86f2d5	0.2635714
1	0x3e06b517	0.13155018
2	0xbef9fb7a	-0.48824674
3	0x3e624539	0.22096719
4	0x3c8b6b8b	0.017019054
5	0x3f254951	0.64564997
6	0x3edb8c0d	0.42880288
7	0xbe05f14e	-0.13080332
8	0xbd86e756	-0.065870926
9	0xbe8445b7	-0.25834438
10	0x3f090923	0.53529567
11	0x3e33c0c8	0.17554009
12	0xbd6550c2	-0.05598522
13	0xbf28c5c9	-0.65926796
14	0x3d220f3b	0.039565306
15	0x3ef3a63c	0.47587764
16	0x3f2ba3ef	0.6704702
17	0xbf14c5ee	-0.58114517
18	0xbe5c4513	-0.21510725
19	0xbf140738	-0.57823515
20	0xbe219baa	-0.15782037
21	0x3e157215	0.145943
22	0x3ed8180c	0.42205846
23	0xbecf25b8	-0.40458465
24	0x3e878eda	0.26476175
25	0x3edc6b5d	0.43050662
26	0xbf360360	-0.710989
27	0xbee3857e	-0.44437784
28	0xbf0c86d2	-0.5489322
29	0xbe8d81ce	-0.27638096
30	0x3f29c233	0.6631195
31	0xbf06cbce	-0.5265473

arr_1 f4 [4]
0	0xbc8ee52c	-0.017443262
1	0x3c8fbbd1	0.017545613
2	0xbc8fc703	-0.01755095
3	0xbc8e1ffe	-0.01734924

arr_2 f4 [12, 1]
0	0x3da3e01a	0.08001728
1	0xbed90693	-0.42387828
2	0x3e8b49c9	0.2720473
3	0x3cc32e0f	0.023825673
4	0xbf027c4e	-0.50970924
5	0x3e1f1f57	0.15539299
6	0xbd7571ba	-0.05992291
7	0x3f190611	0.5977488
8	0xbdd1a563	-0.10236623
9	0x3d4513f5	0.048114736
10	0x3f1755ad	0.59115106
11	0xbd8ba83e	-0.06819199
